CHATBOT/DATASET/data.pth (torch, 5674 bytes, 6 tensors)

l1.weight f4 [8, 59]
-0.12250872 -0.13496514 0.4758874 -0.024640948 -0.25862086 0.28044373 0.06942454 0.11569957
-0.09746912 0.39011252 0.30569303 0.44717196 -0.15110171 0.5401788 0.21907277 0.18818696
0.048410054 -0.051331192 -0.0998728 0.074390955 0.19062465 -0.19107565 -0.06859249 -0.1913325
-0.19141547 -0.43760854 -0.089158565 0.08968249 -0.124744445 0.21128349 -0.27146232 -0.092718974
0.1201877 -0.06349193 -0.077205546 0.0017267168 0.44775528 0.27658427 -0.028932981 0.442066
-0.07740739 0.26570526 0.41380972 -0.046535466 0.07454336 0.057519294 0.50968575 -0.06743598
-0.38791308 -0.07218228 0.35829914 0.026208432 0.52824473 0.029492393 0.10942064 -0.07454871
0.07571708 0.28254557 0.22467673 -0.23038219 0.44865313 0.055751134 -0.040009394 0.2149325
0.45663685 -0.2589944 0.55583507 0.5750823 0.29485732 0.2798243 0.104703814 0.3477446
0.74106383 -0.13311905 0.29031062 0.30807033 -0.104627624 0.10626598 -0.28557256 0.4909066
0.30269518 -0.18165565 0.3724248 0.23953828 0.10218906 0.13016577 0.4113663 0.5807238
0.5077196 0.4120641 -0.13082327 -0.30487904 -0.116170146 0.5982223 -0.22087122 0.55738014
0.42053285 0.52483237 0.14503069 0.45429748 0.24678625 0.2810559 -0.20489466 -0.08922153
0.37376344 -0.021051513 0.668638 -0.49478152 -0.03377466 0.35748824 0.49107167 0.5051652
-0.036179602 0.58760995 -0.17505635 0.3906638 0.18970488 0.34022802 -0.2954647 -0.08649975
-0.17035137 0.018791389 0.4078647 0.33638573 -0.1319293 -0.09387484 -0.13333789 -0.19962536
-0.49038938 0.035684038 0.44751185 -0.373565 -0.003901033 0.16042058 -0.1260071 0.020565474
0.32776922 0.0115933595 -0.12768923 0.5293258 -0.24089906 0.48111513 0.44774613 0.56766653
-0.16175108 0.46619582 -0.25532708 0.11244162 0.06208781 0.14776729 -0.004241972 -0.1474861
-0.11171459 0.15072386 0.36826584 -0.45661545 -0.15069816 -0.14556089 -0.18004349 0.1487392
0.14046729 0.23624776 0.13279009 -0.21587591 -0.08165834 -0.2792286 -0.6767821 -0.18544112
0.29468697 0.25143483 0.29894197 0.13368812 -0.07259294 -0.0071940157 -0.10715 -0.08000628
0.36802804 0.6909521 0.32289648 0.15937741 0.47705388 -0.1831132 -0.5165623 -0.1703923
-0.096142806 -0.13279568 -0.22323376 -0.078838415 0.049027648 -0.18479961 -0.15147358 0.5225957
-0.14193596 0.098035574 0.5147826 -0.17327228 -0.09421845 -0.23510617 -0.35734412 0.55161804
-0.3566487 -0.35699868 -0.016906356 0.33185363 -0.1517909 0.18495914 0.07034097 0.4185518
-0.22262679 0.5568649 0.44385004 0.17590643 0.41222998 0.056648273 0.093036644 -0.13968875
0.009958649 -0.16500925 -0.15918928 0.054914393 -0.07994824 0.5477539 0.28911024 0.24087788
0.22616404 0.9260194 0.5938854 -0.11761514 -0.022756588 0.06440855 0.52925223 -0.1839508
0.44270387 -0.25058454 0.298854 -0.10605253 0.61554956 -0.020536905 0.19619596 -0.14981279
0.21412337 0.18853144 0.6930894 -0.16575946 0.370644 0.35953152 0.14207551 0.21864614
0.022021428 0.01776426 -0.17145775 -0.29871264 -0.23600201 -0.2645172 -0.051549938 0.8003571
00000000: dae5 fabd 4d34 0abe 83a7 f33e d0db c9bc
00000010: f469 84be 5296 8f3e 742e 8e3d e5f3 ec3d
00000020: e49d c7bd d4bc c73e cc83 9c3e b9f3 e43e
00000030: 68ba 1abe 2849 0a3f 9d54 603e 15b4 403e
00000040: 9f49 463d a840 52bd 1c8a ccbd 495a 983d
00000050: 1c33 433e 56a9 43be 387a 8cbd abec 43be
00000060: 6b02 44be 3a0e e0be c498 b6bd 74ab b73d
00000070: 047a ffbd b35a 583e 1cfd 8abe 72e3 bdbd
00000080: f824 f63d 0f08 82bd f11d 9ebd 0053 e23a
00000090: 2e40 e53e 749c 8d3e dc04 edbc 7a56 e23e
000000a0: c487 9ebd 850a 883e dede d33e f99b 3ebd
000000b0: 30aa 983d 5a99 6b3d c47a 023f e01b 8abd
000000c0: 8b9c c6be 4ed4 93bd fc72 b73e 11b3 d63c
000000d0: 0c3b 073f 089a f13c ee17 e03d feac 98bd
000000e0: 8e11 9b3d d0a9 903e a811 663e 4fe9 6bbe
000000f0: ddb5 e53e 4d5b 643d e4e0 23bd 4417 5c3e
00000100: 4ecc e93e ea9a 84be 354b 0e3f 9838 133f
00000110: 8af7 963e 2145 8f3e f46e d63d 950b b23e
00000120: 5cb6 3d3f 5c50 08be 98a3 943e 65bb 9d3e
00000130: 0247 d6bd faa1 d93d 9136 92be 1c58 fb3e
00000140: ddfa 9a3e f003 3abe 77ae be3e 8649 753e
00000150: 7f48 d13d 2d4a 053e 9b9e d23e 51aa 143f
00000160: e9f9 013f 11fa d23e 89f6 05be 1b19 9cbe
00000170: 9dea edbd 1925 193f 112c 62be 77b0 0e3f
00000180: 1550 d73e 6a5b 063f ed82 143e ae99 e83e
00000190: 89b5 7c3e 8fe6 8f3e e8cf 51be c7b9 b6bd
000001a0: ec5d bf3e 3974 acbc dc2b 2b3f 0154 fdbe
000001b0: 4c57 0abd b308 b73e bf6d fb3e 8252 013f
000001c0: 1031 14bd 9b6d 163f f941 33be 1605 c83e
000001d0: ff41 423e 5e32 ae3e 2647 97be c826 b1bd
000001e0: 9770 2ebe 66f0 993c a4d3 d03e c03a ac3e
000001f0: 7918 07be 7441 c0bd ba89 08be 976a 4cbe
00000200: 5114 fbbe 6d29 123d 4620 e53e e943 bfbe
00000210: 79a8 7fbb 4b45 243e 0108 01be ed78 a83c
00000220: 5ed1 a73e 13f2 3d3c f7c0 02be e581 073f
00000230: 3eae 76be b954 f63e fb3e e53e 9852 113f
00000240: 13a2 25be 38b1 ee3e 3bba 82be cb47 e63d
00000250: ca4f 7e3d 4f50 173e 3e00 8bbb 9906 17be
00000260: 9eca e4bd 5b57 1a3e 578d bc3e 80c9 e9be
00000270: 9e50 1abe ea0d 15be 525d 38be 174f 183e
00000280: a8d6 0f3e efea 713e 20fa 073e 930e 5dbe
00000290: 7d3c a7bd 0df7 8ebe 9741 2dbf 47e4 3dbe
000002a0: 36e1 963e 11bc 803e ec0e 993e 8ae5 083e
000002b0: 9bab 94bd c7bb ebbb 7671 dbbd 55da a3bd
000002c0: 2c6e bc3e 3de2 303f b052 a53e d533 233e
000002d0: 6840 f43e 0782 3bbe 6d3d 04bf 527b 2ebe
000002e0: 85e6 c4bd 97fb 07be 6497 64be 0976 a1bd
000002f0: 37d1 483d 1c3c 3dbe e41b 1bbe d5c8 053f
00000300: a957 11be e0c6 c83d cbc8 033f 4a6e 31be
00000310: 9af5 c0bd acbf 70be cff5 b6be d736 0d3f
00000320: a99a b6be 88c8 b6be 337f 8abc b8e8 a93e
00000330: 136f 1bbe ee65 3d3e ed0e 903d 6c4c d63e
00000340: 47f8 63be b38e 0e3f 5040 e33e d120 343e
00000350: cf0f d33e 0508 683d ff89 be3d 910a 0fbe
00000360: 9a29 233c 2ff8 28be 8402 23be eaed 603d
00000370: e7bb a3bd 9939 0c3f 4206 943e b1a8 763e
00000380: 8c97 673e 9b0f 6d3f e008 183f 35e0 f0bd
00000390: 066c babc a1e8 833d 137d 073f 995d 3cbe
000003a0: 15aa e23e 9e4c 80be 6403 993e 1232 d9bd
000003b0: a894 1d3f 033d a8bc 98e7 483e 8668 19be
000003c0: 2843 5b3e 630e 413e 4f6e 313f d9bc 29be
000003d0: 0dc5 bd3e 8414 b83e 3e7c 113e c6e4 5f3e
000003e0: 4866 b43c 5a86 913c 9f92 2fbe ddf0 98be
000003f0: 83aa 71be cc6e 87be 0726 53bd 34e4 4c3f

l1.bias f4 [8]
0.19165914 0.44591588 0.7327644 0.35794577 1.0659671 0.40722257 0.7129997 0.5020031
00000000: 4b42 443e 164f e43e 7396 3b3f ab44 b73e
00000010: 9c71 883f 7a7f d03e 2687 363f 4683 003f

l2.weight f4 [8, 8]
-0.03265409 1.1819075 0.8986812 -0.38269994 -0.5232737 -0.0790447 -0.32489574 0.6947403
-0.4923758 -0.8115474 1.1011808 0.49110052 0.33132055 -0.44487935 0.57634324 0.48038086
0.28596944 -0.1588405 -0.6733255 0.59521586 1.5211631 -0.10693101 -0.043274462 -0.7369023
0.3544382 -0.14729962 -0.76229423 0.86800367 0.009285308 1.2313185 1.0592041 1.0668424
0.5603228 1.0546933 -0.30892304 -0.37801287 -0.601211 0.6917193 0.64347035 0.37465182
0.968904 1.0526655 1.2155676 -1.0108753 0.6488424 -0.32497558 0.6192101 -0.77809995
-0.7913199 -0.122931495 0.5526945 -0.34976813 1.1418331 -0.120645255 0.40061677 0.684506
-0.6347454 0.15817538 0.34166914 -0.20950642 -0.12411118 -0.2750441 0.298246 0.7171573
00000000: 4cc0 05bd bf48 973f f90f 663f 3ff1 c3be
00000010: 44f5 05bf 30e2 a1bd bc58 a6be 80da 313f
00000020: ae18 fcbe 92c1 4fbf 7ef3 8c3f 8771 fb3e
00000030: d9a2 a93e 3ac7 e3be 3b8b 133f 7bf4 f53e
00000040: 966a 923e 16a7 22be 0f5f 2cbf 1160 183f
00000050: 79b5 c23f a5fe dabd 9040 31bd a1a5 3cbf
00000060: ec78 b53e b6d5 16be b725 43bf 7d35 5e3f
00000070: 6821 183c d89b 9d3f 0094 873f 4b8e 883f
00000080: 5171 0f3f 3100 873f 292b 9ebe e78a c1be
00000090: f7e8 19bf 8414 313f 79ba 243f 5dd2 bf3e
000000a0: 180a 783f bebd 863f b897 9b3f 5d64 81bf
000000b0: 891a 263f 3363 a6be 8e84 1e3f 8f31 47bf
000000c0: f193 4abf 82c3 fbbd 637d 0d3f cf14 b3be
000000d0: 9627 923f dc14 f7bd a41d cd3e c93b 2f3f
000000e0: ad7e 22bf baf8 213e 42ef ae3e da88 56be
000000f0: 012e febd 95d2 8cbe b3b3 983e 9f97 373f

l2.bias f4 [8]
0.3288212 0.7216004 0.54015976 -0.0791319 0.2669748 0.56019706 0.60205674 0.06551374
00000000: 415b a83e ceba 383f e947 0a3f e80f a2bd
00000010: ecb0 883e 1369 0f3f 6420 1a3f 112c 863d

l3.weight f4 [7, 8]
0.82994884 -1.0217637 -0.6292909 -1.3210121 0.09731194 0.7828908 -1.1015173 -0.26863152
-1.1338985 0.685873 -1.6303558 0.57254523 -0.025996398 -0.8554042 -0.32204863 0.038958725
0.33576003 -0.9169517 -1.0023779 0.50883865 0.5239022 -1.0101023 -0.26104265 0.08083917
-1.1900953 0.24957322 0.9257484 -1.4748247 -0.8544329 0.31938246 0.3087156 -0.6881454
0.4556256 0.4457845 -1.7990783 -0.7554165 -0.27231115 0.37567458 0.6833196 0.5925844
-1.0944749 -1.304272 0.22028995 0.10215107 0.14878076 0.37812227 -0.33723775 -0.5336593
-0.7028608 0.09896942 0.62628067 0.41405818 -0.9875772 -1.2889187 0.06933334 -0.31992823
00000000: 8777 543f 27c9 82bf 3519 21bf ed16 a9bf
00000010: 7b4b c73d 886b 483f 85fe 8cbf 128a 89be
00000020: 9623 91bf 5f95 2f3f 80af d0bf 5392 123f
00000030: 66f6 d4bc c5fb 5abf 8fe3 a4be 2f93 1f3d
00000040: bde8 ab3e 59bd 6abf eb4d 80bf 4043 023f
00000050: 741e 063f 084b 81bf 62a7 85be 028f a53d
00000060: 0b55 98bf 1f90 7f3e d9fd 6c3f 0ec7 bcbf
00000070: 1dbc 5abf 1986 a33e f90f 9e3e 4c2a 30bf
00000080: c247 e93e de3d e43e 3348 e6bf fa62 41bf
00000090: 5e6c 8bbe 6b58 c03e 09ee 2e3f 9cb3 173f
000000a0: c117 8cbf 63f2 a6bf b093 613e 9534 d13d
000000b0: fc59 183e 3e99 c13e 6daa acbe e59d 08bf
000000c0: afee 33bf 7bb0 ca3d ee53 203f 6fff d33e
000000d0: dcd1 7cbf 4afb a4bf a3fe 8d3d a2cd a3be

l3.bias f4 [7]
0.13754818 -0.17267683 -0.23515002 0.016669596 -0.0063218023 0.1377529 0.31309855
00000000: 6ed9 0c3e 32d2 30be 2bcb 70be ad8e 883c
00000010: 1f27 cfbb 190f 0d3e 744e a03e
